…
sDetectorProvider\"}, \"113\": {\"inputs\": {\"images\": [\"110\", 1]}, \"class_type\": \"PreviewImage\"}, \"114\": {\"inputs\": {\"images\": [\"110\", 2]}, \"class_type\": \"PreviewImage\"}, \"115\": {\"inputs\": {\"images\": [\"110\", 5]}, \"class_type\": \"PreviewImage\"}, \"117\": {\"inputs\": {\"pixels\": [\"89\", 0], \"vae\": [\"1\", 2]}, \"class_type\": \"VAEEncode\"}, \"118\": {\"inputs\": {\"title_regex\": \"\", \"input_regex\": \"sam_model_opt\", \"group_regex\": \"\", \"display_text_widget\": \"Sam(\\n  (image_encoder): ImageEncoderViT(\\n    (patch_embed): PatchEmbed(\\n      (proj): Conv2d(3, 768, kernel_size=(16, 16), stride=(16, 16))\\n    )\\n    (blocks): ModuleList(\\n      (0-11): 12 x Block(\\n        (norm1): LayerNorm((768,), eps=1e-06, elementwise_affine=True)\\n        (attn): Attention(\\n          (qkv): Linear(in_features=768, out_features=2304, bias=True)\\n          (proj): Linear(in_features=768, out_features=768, bias=True)\\n        )\\n        (norm2): LayerNorm((768,), eps=1e-06, elementwise_affine=True)\\n        (mlp): MLPBlock(\\n          (lin1): Linear(in_features=768, out_features=3072, bias=True)\\n          (lin2): Linear(in_features=3072, out_features=768, bias=True)\\n          (act): GELU(approximate='none')\\n        )\\n      )\\n    )\\n    (neck): Sequential(\\n      (0): Conv2d(768, 256, kernel_size=(1, 1), stride=(1, 1), bias=False)\\n      (1): LayerNorm2d()\\n      (2): Conv2d(256, 256, kernel_size=(3, 3), stride=(1, 1), padding=(1, 1), bias=False)\\n      (3): LayerNorm2d()\\n    )\\n  )\\n  (prompt_encoder): PromptEncoder(\\n    (pe_layer): PositionEmbeddingRandom()\\n    (point_embeddings): ModuleList(\\n      (0-3): 4 x Embedding(1, 256)\\n    )\\n    (not_a_point_embed): Embedding(1, 256)\\n    (mask_downscaling): Sequential(\\n      (0): Conv2d(1, 4, kernel_size=(2, 2), stride=(2, 2))\\n      (1): LayerNorm2d()\\n      (2): GELU(approximate='none')\\n      (3): Conv2d(4, 16, kernel_size=(2, 2), stride=(2, 2))\\n      (4): LayerNorm2d()\\n      (5): GELU(approximate='none')\\n      (6): Conv2d(16, 256, kernel_size=(1, 1), stride=(1, 1))\\n    )\\n    (no_mask_embed): Embedding(1, 256)\\n  )\\n  (mask_decoder): MaskDecoder(\\n    (transformer): TwoWayTransformer(\\n      (layers): ModuleList(\\n        (0-1): 2 x TwoWayAttentionBlock(\\n          (self_attn): Attention(\\n            (q_proj): Linear(in_features=256, out_features=256, bias=True)\\n            (k_proj): Linear(in_features=256, out_features=256, bias=True)\\n            (v_proj): Linear(in_features=256, out_features=256, bias=True)\\n            (out_proj): Linear(in_features=256, out_features=256, bias=True)\\n          )\\n          (norm1): LayerNorm((256,), eps=1e-05, elementwise_affine=True)\\n          (cross_attn_token_to_image): Attention(\\n            (q_proj): Linear(in_features=256, out_features=128, bias=True)\\n            (k_proj): Linear(in_features=256, out_features=128, bias=True)\\n            (v_proj): Linear(in_features=256, out_features=128, bias=True)\\n            (out_proj): Linear(in_features=128, out_features=256, bias=True)\\n          )\\n          (norm2): LayerNorm((256,), eps=1e-05, elementwise_affine=True)\\n          (mlp): MLPBlock(\\n            (lin1): Linear(in_features=256, out_features=2048, bias=True)\\n            (lin2): Linear(in_features=2048, out_features=256, bias=True)\\n            (act): ReLU()\\n          )\\n          (norm3): LayerNorm((256,), eps=1e-05, elementwise_affine=True)\\n          (norm4): LayerNorm((256,), eps=1e-05, elementwise_affine=True)\\n          (cross_attn_image_to_token): Attention(\\n            (q_proj): Linear(in_features=256, out_features=128, bias=True)\\n            (k_proj): Linear(in_features=256, out_features=128, bias=True)\\n            (v_proj): Linear(in_features=256, out_features=128, bias=True)\\n            (out_proj): Linear(in_features=128, out_features=256, bias=True)\\n          )\\n        )\\n      )\\n      (final_attn_token_to_image): Attention(\\n        (q_proj): Linear(in_features=256, out_features=128, bias=True)\\n        (k_proj): Linear(in_features=256, out_features=128, bias=True)\\n        (v_proj): Linear(in_features=256, out_features=128, bias=True)\\n        (out_proj): Linear(in_features=128, out_features=256, bias=True)\\n      )\\n      (norm_final_attn): LayerNorm((256,), eps=1e-05, elementwise_affine=True)\\n    )\\n    (iou_token): Embedding(1, 256)\\n    (mask_tokens): Embedding(4, 256)\\n    (output_upscaling): Sequential(\\n      (0): ConvTranspose2d(256, 64, kernel_size=(2, 2), stride=(2, 2))\\n      (1): LayerNorm2d()\\n      (2): GELU(approximate='none')\\n      (3): ConvTranspose2d(64, 32, kernel_size=(2, 2), stride=(2, 2))\\n      (4): GELU(approximate='none')\\n    )\\n    (output_hypernetworks_mlps): ModuleList(\\n      (0-3): 4 x MLP(\\n        (layers): ModuleList(\\n          (0-1): 2 x Linear(in_features=256, out_features=256, bias=True)\\n          (2): Linear(in_features=256, out_features=32, bias=True)\\n        )\\n      )\\n    )\\n    (iou_prediction_head): MLP(\\n      (layers): ModuleList(\\n        (0-1): 2 x Linear(in_features=256, out_features=256, bias=True)\\n        (2): Linear(in_features=256, out_features=4, bias=True)\\n      )\\n    )\\n  )\\n)\", \"SAM_MODEL\": [\"97\", 0]}, \"class_type\": \"Anything Everywhere?\"}, \"121\": {\"inputs\": {\"title_regex\": \"\", \"input_regex\": \"Upscale\", \"group_regex\": \"\", \"display_text_widget\": \"Tensor shape torch.Size([1, 1152, 896, 3])\", \"IMAGE\": [\"48\", 0]}, \"class_type\": \"Anything Everywhere?\"}, \"143\": {\"i
…
}, {\"id\": 118, \"type\": \"Anything Everywhere?\", \"pos\": [180.72748226839275, -451.50255887990306], \"size\": {\"0\": 320, \"1\": 150}, \"flags\": {\"collapsed\": true, \"pinned\": true}, \"order\": 62, \"mode\": 0, \"inputs\": [{\"name\": \"SAM_MODEL\", \"type\": \"*\", \"link\": 162, \"color_on\": \"\"}], \"title\": \"sam model\", \"properties\": {\"Node name for S&R\": \"Anything Everywhere?\", \"group_restricted\": 0, \"color_restricted\": 0}, \"widgets_values\": [\"\", \"sam_model_opt\", \"\", \"Sam(\\n  (image_encoder): ImageEncoderViT(\\n    (patch_embed): PatchEmbed(\\n      (proj): Conv2d(3, 768, kernel_size=(16, 16), stride=(16, 16))\\n    )\\n    (blocks): ModuleList(\\n      (0-11): 12 x Block(\\n        (norm1): LayerNorm((768,), eps=1e-06, elementwise_affine=True)\\n        (attn): Attention(\\n          (qkv): Linear(in_features=768, out_features=2304, bias=True)\\n          (proj): Linear(in_features=768, out_features=768, bias=True)\\n        )\\n        (norm2): LayerNorm((768,), eps=1e-06, elementwise_affine=True)\\n        (mlp): MLPBlock(\\n          (lin1): Linear(in_features=768, out_features=3072, bias=True)\\n          (lin2): Linear(in_features=3072, out_features=768, bias=True)\\n          (act): GELU(approximate='none')\\n        )\\n      )\\n    )\\n    (neck): Sequential(\\n      (0): Conv2d(768, 256, kernel_size=(1, 1), stride=(1, 1), bias=False)\\n      (1): LayerNorm2d()\\n      (2): Conv2d(256, 256, kernel_size=(3, 3), stride=(1, 1), padding=(1, 1), bias=False)\\n      (3): LayerNorm2d()\\n    )\\n  )\\n  (prompt_encoder): PromptEncoder(\\n    (pe_layer): PositionEmbeddingRandom()\\n    (point_embeddings): ModuleList(\\n      (0-3): 4 x Embedding(1, 256)\\n    )\\n    (not_a_point_embed): Embedding(1, 256)\\n    (mask_downscaling): Sequential(\\n      (0): Conv2d(1, 4, kernel_size=(2, 2), stride=(2, 2))\\n      (1): LayerNorm2d()\\n      (2): GELU(approximate='none')\\n      (3): Conv2d(4, 16, kernel_size=(2, 2), stride=(2, 2))\\n      (4): LayerNorm2d()\\n      (5): GELU(approximate='none')\\n      (6): Conv2d(16, 256, kernel_size=(1, 1), stride=(1, 1))\\n    )\\n    (no_mask_embed): Embedding(1, 256)\\n  )\\n  (mask_decoder): MaskDecoder(\\n    (transformer): TwoWayTransformer(\\n      (layers): ModuleList(\\n        (0-1): 2 x TwoWayAttentionBlock(\\n          (self_attn): Attention(\\n            (q_proj): Linear(in_features=256, out_features=256, bias=True)\\n            (k_proj): Linear(in_features=256, out_features=256, bias=True)\\n            (v_proj): Linear(in_features=256, out_features=256, bias=True)\\n            (out_proj): Linear(in_features=256, out_features=256, bias=True)\\n          )\\n          (norm1): LayerNorm((256,), eps=1e-05, elementwise_affine=True)\\n          (cross_attn_token_to_image): Attention(\\n            (q_proj): Linear(in_features=256, out_features=128, bias=True)\\n            (k_proj): Linear(in_features=256, out_features=128, bias=True)\\n            (v_proj): Linear(in_features=256, out_features=128, bias=True)\\n            (out_proj): Linear(in_features=128, out_features=256, bias=True)\\n          )\\n          (norm2): LayerNorm((256,), eps=1e-05, elementwise_affine=True)\\n          (mlp): MLPBlock(\\n            (lin1): Linear(in_features=256, out_features=2048, bias=True)\\n            (lin2): Linear(in_features=2048, out_features=256, bias=True)\\n            (act): ReLU()\\n          )\\n          (norm3): LayerNorm((256,), eps=1e-05, elementwise_affine=True)\\n          (norm4): LayerNorm((256,), eps=1e-05, elementwise_affine=True)\\n          (cross_attn_image_to_token): Attention(\\n            (q_proj): Linear(in_features=256, out_features=128, bias=True)\\n            (k_proj): Linear(in_features=256, out_features=128, bias=True)\\n            (v_proj): Linear(in_features=256, out_features=128, bias=True)\\n            (out_proj): Linear(in_features=128, out_features=256, bias=True)\\n          )\\n        )\\n      )\\n      (final_attn_token_to_image): Attention(\\n        (q_proj): Linear(in_features=256, out_features=128, bias=True)\\n        (k_proj): Linear(in_features=256, out_features=128, bias=True)\\n        (v_proj): Linear(in_features=256, out_features=128, bias=True)\\n        (out_proj): Linear(in_features=128, out_features=256, bias=True)\\n      )\\n      (norm_final_attn): LayerNorm((256,), eps=1e-05, elementwise_affine=True)\\n    )\\n    (iou_token): Embedding(1, 256)\\n    (mask_tokens): Embedding(4, 256)\\n    (output_upscaling): Sequential(\\n      (0): ConvTranspose2d(256, 64, kernel_size=(2, 2), stride=(2, 2))\\n      (1): LayerNorm2d()\\n      (2): GELU(approximate='none')\\n      (3): ConvTranspose2d(64, 32, kernel_size=(2, 2), stride=(2, 2))\\n      (4): GELU(approximate='none')\\n    )\\n    (output_hypernetworks_mlps): ModuleList(\\n      (0-3): 4 x MLP(\\n        (layers): ModuleList(\\n          (0-1): 2 x Linear(in_features=256, out_features=256, bias=True)\\n          (2): Linear(in_features=256, out_features=32, bias=True)\\n        )\\n      )\\n    )\\n    (iou_prediction_head): MLP(\\n      (layers): ModuleList(\\n        (0-1): 2 x Linear(in_features=256, out_features=256, bias=True)\\n        (2): Linear(in_features=256, out_features=4, bias=True)\\n      )\\n    )\\n  )\\n)\"], \"color\": \"#222\", \"bgcolor\": \"#000\"}, {\"id\": 91, \"type\": \"UltralyticsDetectorProvider\", \"pos\": [851.481605526616, -376.8570941090776], \"size\": {\"0\": 320, \"1\": 80}, \"flags\": {\"pinned\": true, \"collapsed\": true}, \"order\": 11, \"mode\": 0, \"outputs\": [{\"name\": \"BBOX_DETECTOR\", \"type\": \"BBO
…
